data.pth (torch, 14378 bytes, 6 tensors)

l1.weight f4 [8, 205]
000000 84 a9 27 be 40 99 7b bd f4 8f 7f bf e2 8d cf bd
       -0.16373259 -0.061425447 -0.9982903 -0.10134484
000010 ac 43 0a bf 07 02 5a 3c f7 e9 64 3e 2d a0 05 3f
       -0.5400951 0.013306147 0.22354876 0.52197534
000020 ef ca 0a 40 75 ae 92 3e 86 79 1f 3e 2c f0 74 be
       2.168636 0.28648725 0.15573701 -0.23919743
000030 3b b4 7e bf 82 53 78 3f 7c af e6 3e d5 3c 29 3f
       -0.9949376 0.9700242 0.4505576 0.6610845
000040 63 ba 29 3f ae 49 2a 3e b4 c4 9f bc ec f2 69 3e
       0.6630003 0.16629669 -0.019502975 0.22846574
000050 e4 8d 0f 3e 36 fd f0 bd 22 bd 2b bf 3d aa 77 3e
       0.1401897 -0.11767046 -0.6708547 0.24186035
000060 0e 21 e0 3f 7b ad 8f 3c e3 66 89 3e c4 0a 8a 3e
       1.7510087 0.017538777 0.2683631 0.2696134
000070 46 9d 9c bf 3e 09 99 3e 1d 91 5c 3f 2d 0a c5 3e
       -1.2235496 0.29889864 0.86158925 0.38484326
000080 93 b2 30 bc e8 e0 d1 3f 86 87 84 bb e1 fe ad 3e
       -0.010784763 1.6396761 -0.004044476 0.3398352
000090 2f 4e ea 3e 2f 8f 92 3e 79 96 e5 3e 1d 63 99 be
       0.45762774 0.28624865 0.44841364 -0.2995843
0000a0 25 09 af 3e 34 6c 9c 3e e4 05 69 3f 5b 37 85 3e
       0.34186664 0.30551302 0.91024613 0.26018795
0000b0 ba f3 5e 3d fe ec 2c 3e e1 54 63 3e c8 49 fb 3c
       0.054431655 0.1688728 0.22200347 0.03067483
0000c0 c2 f6 63 3e 4e de 6d 3f 13 6a e9 3f bf 27 20 bf
       0.222621 0.92917335 1.8235496 -0.6256065
0000d0 9c 92 10 3f 54 c6 8d 3e 7c 4c 01 3f 39 05 32 bf
       0.5647371 0.27690375 0.5050733 -0.6953922
0000e0 c7 ae 66 3f 0e ca fd 3e 22 68 b3 3c 43 41 8d be
       0.9011044 0.49568218 0.02190024 -0.27588853
0000f0 32 71 40 3e f5 5b 9a be 6e 9b 5b bc 92 62 f1 3e
       0.1879318 -0.30148283 -0.013403757 0.47145516
000100 98 8b cb 3f dd 3c 0f 3f 0f cd a7 3e 09 55 01 3f
       1.5901976 0.55952245 0.32773635 0.5052038
000110 43 b7 14 3f 5c 00 93 3c 97 37 0d be fb f5 9b 3f
       0.58092135 0.017944507 -0.13790737 1.2184442
000120 b0 a5 07 3f 37 e3 28 bf 4d aa a8 3f bb 6e 0e bf
       0.52987194 -0.659717 1.3176972 -0.5563771
000130 b7 30 2f 3f c6 d0 24 3d 30 02 bb 3f d3 1d 27 bd
       0.6843371 0.040238164 1.4610043 -0.040799927
000140 9c 09 93 3f 9e a8 16 be d9 c2 90 3f ce 7a 8f 3f
       1.1487308 -0.1471276 1.1309463 1.1209352
000150 7f 92 a7 3f 39 5a 20 be 3d 18 17 bf 73 9f 20 3f
       1.3091582 -0.15659417 -0.5902136 0.627433
000160 f8 13 e6 bd d9 6f a2 bd 0f 94 48 be 03 9b 09 3f
       -0.112342775 -0.079314895 -0.1958773 0.53752154
000170 bf 49 16 3f 7b 96 cb be e6 29 29 bf 3f a1 9c bd
       0.5870628 -0.39763245 -0.66079557 -0.07647943
000180 1d e4 26 3f 13 ef 83 be 65 f6 a1 bf a3 29 56 3e
       0.65191823 -0.25768337 -1.2653319 0.2091432
000190 5f 5d 6d 3f 90 c2 64 bd 4d db a5 3d 49 6a e4 be
       0.927206 -0.05584961 0.08098469 -0.4461234
0001a0 51 cd 78 be e2 d9 3d 3d 81 8e a9 bc e4 28 83 3e
       -0.24297072 0.046350367 -0.020697834 0.25617135
0001b0 b4 31 2a bf 9a 2d a8 3e c8 b1 a8 be be e0 93 3f
       -0.6648209 0.3284729 -0.32948136 1.1552961
0001c0 fe 10 62 3e 80 0a 62 be 27 62 cb be a2 e2 9d bf
       0.22076795 -0.22074318 -0.39723322 -1.2334788
0001d0 7d bf 0b bf ee 84 e1 3e 28 77 ca 3f 73 34 25 3f
       -0.5458906 0.4404673 1.5817614 0.64533156
0001e0 1a 92 80 3e 51 63 a3 be c7 3e db 3e 19 96 9e bd
       0.25111467 -0.3191171 0.42821333 -0.077434726
0001f0 a3 01 37 3f 33 96 d9 3e 02 22 47 3e c9 d6 d1 3d
       0.7148687 0.42497405 0.19446567 0.10246045
000200 eb 90 ee be e6 24 8f 3e d4 9d 87 3e e0 bf a4 3e
       -0.4659494 0.2795784 0.264876 0.3217764
000210 a0 f0 c8 bd 88 ea 81 3e 3c 33 a2 3e 24 a6 b8 be
       -0.098115206 0.25374246 0.31679714 -0.36064255
000220 4a 9c b3 bc bd 44 f4 3e 4c ef d1 3d c5 be a2 bf
       -0.02192511 0.47708693 0.102507204 -1.2714468
000230 0f 1f 85 bd c3 df ae be 4e 42 81 3e 0f 7e ad 3f
       -0.065000646 -0.34155092 0.252459 1.3554095
000240 c5 17 ae 3f cb a7 16 3f c2 d6 ae 3e b1 44 ea 3f
       1.3601004 0.5884978 0.34148222 1.8302213
000250 55 26 b9 3d 75 a4 36 3f 73 0e 1b 3f 9a 18 8d 3f
       0.090405144 0.7134469 0.6056892 1.1023133
000260 35 29 22 3c 86 50 ac bd fa 46 0b c0 db 24 46 bf
       0.00989752 -0.08413796 -2.176207 -0.77399987
000270 df 94 8d 3f 28 c0 3c be 1b fa ca be 7c e2 64 3f
       1.1061057 -0.18432677 -0.3964394 0.8940809
000280 4f 24 ab 3f ed 53 c3 3f 14 f0 b8 3f 75 a6 d4 3f
       1.3370456 1.5259987 1.4448266 1.6613299
000290 6f 60 b7 3f 07 db 05 40 cd ec 02 bd b2 03 fb bd
       1.4326304 2.0914934 -0.031964112 -0.12256564
0002a0 d6 ee 1b bf 5a 0b 75 3b 57 68 ae 3f 8f da 96 3e
       -0.6091131 0.00373908 1.3625592 0.29463622
0002b0 79 57 b9 be 4c bb 7b 3f d0 a6 c7 3e 4e 13 cf be
       -0.3619955 0.9833267 0.38994455 -0.40444416
0002c0 b0 b2 86 3f ac 32 0e 3f 68 8a 8b 3e 5f 2a 39 3e
       1.0523281 0.5554607 0.27254033 0.1808257
0002d0 b2 a6 88 bd 8b f7 f7 3e 44 12 88 ba dd 9f ff be
       -0.066724196 0.48431048 -0.001038142 -0.49926654
0002e0 96 20 6d bc fb 38 e1 3d 02 f7 9a be bf 4a 13 3f
       -0.014473101 0.10997196 -0.30266577 0.5753593
0002f0 59 93 60 3e 04 12 5b 3e 24 fb 8b be bb fd 27 3f
       0.21931209 0.21393591 -0.27340043 0.65621537
000300 ef 5e c5 3f 2c 4e 8d 3f 0f a2 52 3e f5 76 4f 3f
       1.5419596 1.1039481 0.20569633 0.8104089
000310 aa aa bb be 8e ce ea 3d 21 ed c9 3e 15 6d b7 3e
       -0.36653644 0.114651784 0.39438727 0.3582541
000320 92 eb f7 3e 48 6e 04 3f 78 37 e5 be b0 23 c4 be
       0.48421913 0.51730776 -0.44768882 -0.38308477
000330 01 62 00 3f 10 e1 03 3f 71 bf 51 3c ad 1a ae 3f
       0.5014954 0.51515293 0.012801991 1.3601891
000340 08 84 0c 3f 5b 91 91 3f a4 e8 e7 3e 58 ea 96 be
       0.54888964 1.1372484 0.45294678 -0.29475665
000350 fd 69 49 be c4 98 d1 3f 4a c9 12 3f c4 0d 81 be
       -0.19669338 1.6374745 0.5733839 -0.25205815
000360 fc 52 56 3f 6e 56 a0 be 4d 26 63 3e a1 f3 fa be
       0.83720374 -0.3131594 0.2218258 -0.49014
000370 74 65 cb 3c e1 d1 d9 bd 43 8a b2 3e 43 87 46 bf
       0.02482865 -0.10635734 0.3487111 -0.77550143
000380 9f 47 b1 3e 1e f9 3b 3f 48 85 13 3f 3a 48 52 3f
       0.34624955 0.73427 0.57625246 0.8214146
000390 a8 1c bf 3e 8e c8 ba 3f cf 0f de be 28 67 2c 3f
       0.3732655 1.4592454 -0.43371436 0.67344904
0003a0 b8 2e 69 3f 2c 04 84 bf 57 89 db 3e b4 85 af 3e
       0.9108691 -1.0313773 0.4287822 0.34281695
0003b0 16 73 f5 be 36 98 e9 3e 9e b5 0e bf ae 4b f8 3e
       -0.47939366 0.4562394 -0.55745876 0.4849524
0003c0 7f df c2 be 96 6a 73 be fa 86 a1 3f 87 37 15 3d
       -0.3806114 -0.23771128 1.2619317 0.036429908
0003d0 2c db 0b bf 8e f3 02 3f e2 5c 2d 3e a3 8d 58 bc
       -0.54631305 0.51152885 0.16929963 -0.013217363
0003e0 cf 0d cb bf 84 35 55 3f 63 01 56 3f c2 88 79 3e
       -1.5863589 0.83284783 0.83595866 0.24368575
0003f0 c7 4b d6 bc 6e 08 c2 bd 12 83 94 3e 5f 33 8b bd
       -0.02615918 -0.09474264 0.2900625 -0.06796908

l1.bias f4 [8]
000000 e3 d5 9d 3f a9 12 b4 3f f1 38 cd 3f 5c e3 cb 3f
       1.2330898 1.4068195 1.6033002 1.592876
000010 d7 69 98 3f 6d fc 00 40 66 1c 3d 40 c7 df b5 3f
       1.19073 2.0154068 2.9548583 1.4208916

l2.weight f4 [8, 8]
000000 cf 2c 43 bf 7d 52 2d 40 2c 03 ea 3f 19 25 ac bf
       -0.7624025 2.7081597 1.8282218 -1.3448821
000010 ec cd 86 3f 5f be 2c be cb 89 a9 3f c3 ce a8 3f
       1.0531592 -0.16869496 1.3245176 1.3188099
000020 87 ab 34 40 dd bf f6 3f de b0 26 40 e1 cd ff bf
       2.8229692 1.9277302 2.604545 -1.9984704
000030 aa 20 1f 3f 66 46 56 3f 17 60 1b 3f aa f3 8f bf
       0.62159216 0.8370117 0.60693496 -1.1246235
000040 aa c0 b3 bf ca 1d ba bc 09 f0 9a 3f 73 92 c4 3f
       -1.4043171 -0.022719283 1.2104503 1.5357193
000050 63 29 3d bf aa bb 75 40 8f 8c 4b 40 c7 76 27 bf
       -0.73891276 3.839579 3.180454 -0.65415615
000060 c5 07 c5 3f 7c f9 c0 bf dc fc f3 bf ea 53 00 3e
       1.5392996 -1.5076137 -1.9061542 0.1253201
000070 e0 4e 2f 40 35 52 31 40 4d 5d 2d 40 52 aa f6 3f
       2.7391891 2.7706425 2.7088196 1.9270728
000080 97 ef 43 40 e3 09 0c be bf 66 0b 40 05 e8 b0 3e
       3.0614984 -0.13675646 2.1781461 0.34552017
000090 92 c1 d7 3f 01 21 05 c0 0b b6 04 40 11 0a 5d 3f
       1.6855948 -2.0801394 2.073611 0.86343485
0000a0 8c 4b 03 3f d1 0e 55 40 89 0d 50 3f 81 a8 7d 40
       0.5128715 3.3290293 0.81270653 3.9634097
0000b0 a9 e7 9c 3f e7 f9 1f be dd ba bc 3e a6 5b 34 40
       1.2258197 -0.15622674 0.36861315 2.8180938
0000c0 b7 cc 35 40 91 f0 c3 3f d5 8e 42 40 1d f4 f6 3f
       2.8406198 1.530779 3.0399678 1.9293247
0000d0 ae 1d f2 bf 96 27 2b 40 f3 20 0e bf bb 61 91 3f
       -1.8915308 2.6742911 -0.55519027 1.135795
0000e0 ef 39 ac 3f c7 76 ee 3f f1 75 b7 3d b3 4c 0a bf
       1.345518 1.8629998 0.089580424 -0.54023284
0000f0 5f f4 06 40 96 17 cb 3f 86 e2 2d bf 04 5c 2d 40
       2.1086652 1.5866573 -0.6792377 2.7087412

l2.bias f4 [8]
000000 ef 3e 5c 3d 17 a3 0c 3f 74 4a e2 3f 47 3d 40 3f
       0.053770956 0.54936355 1.7678971 0.750935
000010 8b 92 24 3f 39 ff 56 3f d1 b6 a5 3e db 9f 12 bf
       0.64286107 0.8398319 0.3236604 -0.5727517

l3.weight f4 [44, 8]
000000 78 dc a8 3d 89 06 8f 3d aa 5e ad 3e 37 cf 4a bf
       0.08245176 0.06983668 0.33861285 -0.79222435
000010 4e f7 77 bf a4 a8 c9 bf a2 89 16 bf ae e7 aa bf
       -0.9686173 -1.575459 -0.5880376 -1.3351953
000020 63 a5 8d be 1d 38 fd bf f1 26 ed bf 1d d8 a5 bf
       -0.27665243 -1.978275 -1.8527509 -1.2956578
000030 41 4f 15 c0 74 5c 1b 3f 55 48 b8 3d 1c 74 52 3f
       -2.3329623 0.6068795 0.08998171 0.8220842
000040 15 76 35 3e 92 63 2d bf 8b d6 36 bf 9c 12 8f bf
       0.17720826 -0.6773006 -0.71421117 -1.1177554
000050 5c 37 67 bf 46 2f 7f be ad 93 63 bf e4 1a a9 be
       -0.90318847 -0.24920377 -0.8889721 -0.33028328
000060 c5 ad a6 bd 67 f4 7c bd a6 9e 2d bf e3 3d 2c c0
       -0.08138613 -0.061756518 -0.67820203 -2.6912773
000070 82 1f 27 c0 ad 2b 7c 3e 36 50 f1 3d e1 36 19 3d
       -2.611298 0.24626036 0.11782877 0.037405852
000080 25 1f 03 be 86 31 2e 3f 68 2e 98 3d 28 a5 28 c0
       -0.1280485 0.68044317 0.07430726 -2.6350803
000090 2a f8 20 c0 2e f3 ab bf da f7 05 3f 20 41 89 be
       -2.5151467 -1.3433588 0.52331316 -0.268075
0000a0 c7 7f 1b c0 0e f7 07 3f c0 58 2f 3e 1a 2e 0c be
       -2.429674 0.5311135 0.17123699 -0.13689461
0000b0 62 73 01 c0 c9 8c 19 c0 d1 5b 1e 3f 80 2a 15 be
       -2.0226674 -2.3992178 0.6185885 -0.14566994
0000c0 2d 5a 55 bd 89 de 6c 3e ef 2b 94 3f 57 f2 73 3f
       -0.05208795 0.23131765 1.1575907 0.95291656
0000d0 c8 5a c3 be 89 fe 0c c0 58 14 5b c0 71 59 43 c0
       -0.38155198 -2.2030356 -3.4231167 -3.052334
0000e0 56 9a 3c c0 10 92 97 3d 58 b6 19 3f 45 c5 ee 3d
       -2.94692 0.07400906 0.6004386 0.1165872
0000f0 f3 d8 a9 be ba 49 92 bf f2 ca 29 be 37 58 3a c0
       -0.33173332 -1.142875 -0.16581324 -2.9116342
000100 5c 9b 22 c0 5b 96 39 3f f2 ce 88 bf 9f 69 5a c0
       -2.5407324 0.7249505 -1.0688155 -3.4126966
000110 4c ed 08 bf 8a b3 50 bd b3 14 4b 3f f4 1f 23 be
       -0.53487086 -0.05095247 0.7932846 -0.15930158
000120 e9 6f 32 c0 c8 39 51 3e 04 1f 27 bf 89 01 8c bf
       -2.7880805 0.20432198 -0.652817 -1.0937968
000130 e8 51 1a c0 2e 65 00 bf bd 85 f8 3e 3c b2 10 3f
       -2.4112492 -0.5015439 0.48539534 0.56521964
000140 4b 9c a9 bf 34 5a c9 3d e5 d4 8f be 3a c6 b4 bf
       -1.3250822 0.09831658 -0.28092113 -1.4122994
000150 dd 52 b5 be df 8e 90 bf 6c fd 2d 3e 5e c0 05 bf
       -0.35414782 -1.1293601 0.16991204 -0.52246654
000160 7d 71 52 3f ff 71 4d 3f 55 7b 51 c0 bb 66 bd bf
       0.8220442 0.8025207 -3.2731526 -1.4796976
000170 2b 92 1d 3e 05 dd 48 bf 52 de 44 bf 9e b9 39 3e
       0.1538779 -0.7846225 -0.76901734 0.18137214
000180 d1 22 a8 bf 4c 0f 40 bd e0 54 91 3d 21 12 cd 3e
       -1.3135625 -0.04688959 0.07096267 0.40052894
000190 6f 12 18 bf 6f 63 25 c0 11 6e 06 bf 7a a0 61 be
       -0.5940313 -2.584194 -0.525117 -0.22033873
0001a0 cc aa 71 bf cb 88 db bd 15 0e 2b c0 0f fa b8 be
       -0.9440124 -0.107194506 -2.6727345 -0.3612828
0001b0 eb cf d2 3e 46 77 ef be 96 29 b0 be 6d 54 da be
       0.41174254 -0.46770686 -0.34406728 -0.42642537
0001c0 fa 04 00 3f e9 c9 57 bf 02 a2 08 bf 2c 96 1b 3e
       0.50007594 -0.84292465 -0.53372204 0.15194005
0001d0 e5 1e 8f bf 79 2d 2d bf 8a e4 29 c0 3a a5 6f 3e
       -1.1181303 -0.6764751 -2.654574 0.23402873
0001e0 fc fc 6b bf 40 0f f6 bf 30 2e a8 3d f7 f0 6c 3d
       -0.921829 -1.9223404 0.082119346 0.05784699
0001f0 f5 8a ce bf 74 27 23 bf e2 2a 52 bf ab 06 13 3d
       -1.6136156 -0.63732076 -0.82096684 0.03589503
000200 ed ba ac bf a6 39 29 be dc 5c 74 bf c4 1e 1c 3f
       -1.3494545 -0.16525897 -0.9545419 0.60984445
000210 5c 0a 4b 3d 8a 36 6a bf 65 1e 12 c0 b6 bc 40 3e
       0.049570426 -0.9148947 -2.2831051 0.18821988
000220 3a 09 c4 3e 26 e8 14 3e 4f e1 2e c0 b6 e7 e0 3d
       0.3828829 0.14541683 -2.7325017 0.10981695
000230 3f a3 3b bf af 07 f5 be 3b 83 e8 bf 32 b0 08 3f
       -0.7329597 -0.47857425 -1.8165048 0.5339385
000240 6a e7 96 3d ef ab 0f bf d1 d8 5a c0 ef 9a cb bf
       0.073683575 -0.56121725 -3.4194834 -1.5906657
000250 4c 84 fb be c8 53 b9 3e 99 18 83 3d dc c6 b5 3e
       -0.49124372 0.36196733 0.06401176 0.3550328
000260 48 86 e7 bf f3 76 f2 be a7 8f 8e 3f 9c 12 34 3f
       -1.8087854 -0.47356376 1.1137589 0.70340896
000270 f4 bf 13 c0 da 58 16 c0 fb aa a1 be 0e 19 ad bf
       -2.308591 -2.349173 -0.3157576 -1.3523271
000280 c0 6c 36 3d 18 91 5d c0 ae 6f f8 be 4a f3 e7 3e
       0.044537306 -3.4619808 -0.48522705 0.45302802
000290 f5 24 91 3e 9c 9b 95 bd 0e c0 4b c0 6a 64 c5 be
       0.28348508 -0.07305071 -3.183597 -0.38553172
0002a0 1a ec 7f c0 da 58 24 c0 d6 88 3f 3e 8f 82 3d 3f
       -3.9987855 -2.567923 0.18704543 0.7402734
0002b0 f2 05 3c 3d a4 12 c8 bd 10 57 56 bf f5 f9 dc bf
       0.045904107 -0.097691804 -0.83726597 -1.7263781
0002c0 c2 95 00 c0 e5 04 24 3f 7c 8c bd bd 2a 58 a5 be
       -2.0091405 0.6406997 -0.09255311 -0.32293826
0002d0 60 c5 0b 3e 30 2a 34 c0 eb a0 70 3e 2f 89 9e bf
       0.13649511 -2.815075 0.23498885 -1.2385615
0002e0 ef 02 a7 bf 62 50 a7 3d 9a 8a 4a bf f6 d4 a9 3e
       -1.304777 0.08169629 -0.7911774 0.3317029
0002f0 8c 64 1e 3f 74 94 03 bf 52 25 f7 bf f0 73 fc bf
       0.6187217 -0.51398396 -1.9308264 -1.9722881
000300 d4 70 09 3f 6d c0 75 3e 33 bd cb be 8d f3 40 c0
       0.5368779 0.23999186 -0.39792785 -3.0148652
000310 7c 7b 88 3e df 48 20 3e 54 c4 be bf f2 76 cc bf
       0.2665671 0.15652798 -1.4903665 -1.5973799
000320 9b a3 13 c0 25 c1 af be ec 58 e4 bf 79 54 f7 3d
       -2.3068607 -0.34327045 -1.7839637 0.12076659
000330 bc 81 aa bf 7b a2 8a bd ec ec 92 be fb 87 ef 3e
       -1.3320842 -0.06769272 -0.28696382 0.46783432
000340 c2 fb 82 c0 99 93 5a c0 67 c4 e3 3e c9 9c 10 3f
       -4.093232 -3.4152586 0.4448578 0.56489235
000350 73 fd 5c c0 4c 13 96 3d 50 54 b6 be 2e 13 bf 3e
       -3.4529693 0.07327899 -0.356112 0.3731932
000360 1c 71 45 c0 16 b3 14 c0 60 f6 97 be e4 0c 5c bf
       -3.0850286 -2.3234305 -0.29680157 -0.8595717
000370 8f df 06 c0 20 dc 3f 3f 5d 82 86 3d 95 19 9b 3c
       -2.107395 0.7494526 0.065678336 0.018933097
000380 0f be 5f bf 99 eb c0 bf 94 9d 4d bf da 50 54 c0
       -0.8739938 -1.5071899 -0.8031857 -3.3174348
000390 4f 2b 45 be 5c 75 42 3f 47 f6 f2 bd 4c cc a8 be
       -0.19254802 0.75960326 -0.1186338 -0.32968366
0003a0 4f be 7a c0 ee 2d 27 c0 6f 94 71 3f ae 38 48 3f
       -3.9178655 -2.6121783 0.94367117 0.78211486
0003b0 bf 6e 17 c0 d2 27 07 be db cb 0c 3f 5b e9 4b c0
       -2.3661344 -0.13198784 0.5499856 -3.186118
0003c0 df 81 1c bf 19 cc c7 bf ca 78 1a c0 3d 6a 58 3d
       -0.6113567 -1.5609161 -2.4136224 0.05283569
0003d0 ac 81 bd 3e 05 38 be 3e d1 c1 08 c0 7d fc 1d 3d
       0.37012994 0.37152115 -2.1368296 0.03857087
0003e0 83 59 91 3e 25 49 1f 3f f0 ec d6 bf 31 77 03 be
       0.28388605 0.62220985 -1.6791058 -0.12838437
0003f0 80 a5 2e 3f a4 d0 8c bf 31 8d 20 c0 14 2d 0e bf
       0.6822128 -1.1001172 -2.5086176 -0.55537534

l3.bias f4 [44]
000000 28 74 be be f3 b0 51 3e 28 29 25 bd 34 2b 84 be
       -0.37197995 0.20477657 -0.040322453 -0.2581421
000010 86 c0 14 3e 89 ac 08 3e 95 ea 6d be 7e 5f a9 be
       0.14526567 0.13347067 -0.23234017 -0.33080667
000020 af c2 a1 3e 4c 30 93 be fd 39 80 bf 7c ac 2d bc
       0.31593844 -0.28747785 -1.0017697 -0.0106002055
000030 11 97 34 bf b2 b2 b4 be e0 23 61 be e3 de f6 be
       -0.7054301 -0.35292584 -0.21986341 -0.48216924
000040 22 db 80 be c6 df 28 bd 39 ff 9a be 95 59 29 3e
       -0.25167185 -0.041229032 -0.30272844 0.16538079
000050 74 83 ee bd d3 9a 2a be c2 29 19 bf 80 17 a8 bd
       -0.116461664 -0.16660623 -0.5982934 -0.08207607
000060 b8 6f 49 be 72 4c df be 1a 2a 85 3d f3 21 d6 3e
       -0.19671524 -0.4361301 0.06502171 0.41822776
000070 20 e2 8d bc 12 ee 03 3e 87 92 41 be 76 62 f3 3d
       -0.017319739 0.12883785 -0.18903552 0.11884014
000080 ea 0f 3f 3e d3 78 8e bd cc 38 9d 3e 68 9f 42 be
       0.18658414 -0.06956639 0.30707395 -0.19006121
000090 5f 17 a4 3e fc 20 6a be 82 26 23 3f bb 76 9c 3d
       0.3204908 -0.22864145 0.63730633 0.076398335
0000a0 8c aa 35 3e 3a 06 17 3f f6 bc 6e 3e 43 ee 52 3e
       0.1774084 0.58993876 0.2331427 0.20598702
